IrisDatasetModel.pt (torch_old, 1640 bytes, 6 tensors)

fc1.weight f4 [8, 4]
00000000: a047 743d e00a 723d 922c d1be 767a 94be
00000010: fe50 fcbe 300d ecbe ae5c fc3e 9083 d33e
00000020: b273 313f 5c44 653f 6750 0bbf 8870 7abf
00000030: c150 913e 5e62 26be 81f6 73bb b7cc 203e
00000040: 6ee7 863e 8e95 92be 6002 46be b842 ecbe
00000050: 3a77 d83d 6930 bbbe 99f9 3c3f 92eb 473f
00000060: 54bb 313f 9bef 9b3d b58e 383f bbb9 773e
00000070: b03d be39 fe7c 17bf 9a0e 863f 1e8e 983f
0.05963862 0.059092402 -0.40854317 -0.2899968 -0.49280542 -0.4610381 0.4928946 0.41311312
0.6931716 0.89557433 -0.5441956 -0.9782796 0.28381923 -0.16248462 -0.0037225785 0.15703093
0.26348442 -0.28629726 -0.19336843 -0.46144652 0.10569616 -0.36560372 0.73818356 0.78093827
0.69426465 0.076140605 0.72092754 0.24191944 0.00036285585 -0.591751 1.0473206 1.1918371

fc1.bias f4 [8]
00000000: 6859 4cbe faeb 9c3e 8b63 933f 5ed0 c1be
00000010: f8b4 47be 648c 1dbd af7c 353f d79c 03bf
-0.19955981 0.30648786 1.1514753 -0.37854284 -0.19502628 -0.038463965 0.7089338 -0.51411194

fc2.weight f4 [9, 8]
00000000: 445a de3d 3b13 863e da56 3b3f 363c 79be
00000010: 68eb 14be 4737 053e 9d05 843e b594 04bf
00000020: ceae f5bd 89ab af3e dcc0 62be c6e4 683e
00000030: 1a15 523e 2e9b adbe 7ab3 b4be 545f f03d
00000040: e2a1 313e 7774 a03e 5239 d2be d7b4 a13e
00000050: aea5 80be 743a 573f f501 d23d 2354 5f3f
00000060: b000 1d3d 06a2 5f3e ec3f 373f 1aa0 d1bb
00000070: 009e 703b d670 a3bd 46ec ab3e a25c e3be
00000080: 75de 36be 578a 2abe 7ec9 44be 8123 9a3e
00000090: 0ecb 4c3e 3c13 153e bc10 d9bd 48df 92be
000000a0: c015 9a3d 0941 a73e b96f cabe b3ed a2be
000000b0: 7063 00bd e5b3 193f bfc6 0a3f 22c1 3a3f
000000c0: e64f 7fbe 48b6 aabe feb4 d8be aa9d ce3c
000000d0: 52a5 4f3e d044 523f 38d6 0a3f 59ac ab3e
000000e0: cb12 b0be 2a4c 313e 14e5 7a3f 831f 1a3e
000000f0: 8d40 36be 55a3 69be f997 fe3e 2af5 23bf
00000100: 14a5 4ebe 50be 843d ae08 d0be d97d 4cbe
00000110: e867 3bbd 5ac3 13be e15e af3d 7552 57bd
0.108570606 0.26186547 0.731794 -0.24339375 -0.14542925 0.13009368 0.25785533 -0.5178941
-0.11996232 0.34310558 -0.22143883 0.2274352 0.20515862 -0.33907455 -0.3529318 0.117369324
0.1734691 0.31338856 -0.41059357 0.31583282 -0.25126404 0.8407357 0.102542795 0.8723776
0.038330734 0.21839151 0.7158191 -0.0063972594 0.003671527 -0.07980506 0.335787 -0.4440661
-0.17858298 -0.16654335 -0.19217488 0.30105212 0.19999334 0.14558119 -0.10598895 -0.28685975
0.0752368 0.32666805 -0.39538363 -0.31821975 -0.03134483 0.6004012 0.5420951 0.7295095
-0.24932823 -0.33342195 -0.42325586 0.025221664 0.20277908 0.8213625 0.5423312 0.33529928
-0.34389338 0.1731421 0.98005795 0.15051083 -0.17798062 -0.22816212 0.4972532 -0.64045966
-0.2018016 0.06481612 -0.40631622 -0.19969882 -0.04575339 -0.1442999 0.085630186 -0.05256887

fc2.bias f4 [9]
00000000: 0086 2e3d c00f 0ebd e5eb 9bbe ae11 393f
00000010: 5014 a33c 5915 19bf c09a 55be 2135 383f
00000020: 659e e73b
0.04260826 -0.03468299 -0.3045341 0.722926 0.019907147 -0.597982 -0.20859814 0.7195607
0.0070684426

out.weight f4 [3, 9]
00000000: 2d45 973e dcaa b83d 5412 e6be d3bb 3a3f
00000010: 9686 babd 6429 0fbf b186 94be d805 053f
00000020: 527f e93d e7ea 9b3e dfe4 953e 49e6 a13d
00000030: e405 943e 2cb6 ec3d ed00 ed3d b2d2 b23e
00000040: 238f 4a3e d214 283e 6ae4 43bf d0e1 ef3c
00000050: 259a 4d3f c47d 7abf e064 833d a426 5a3f
00000060: 1068 0c3f 72b7 4dbf 1f78 d13c
0.29544964 0.09016964 -0.44935858 0.72942847 -0.091077015 -0.5592253 -0.2900901 0.5196204
0.114012375 0.30452654 0.29276177 0.079052515 0.28910744 0.11558184 0.11572442 0.34926373
0.19781165 0.16414192 -0.7652041 0.02928248 0.8031333 -0.97848153 0.06415725 0.8521521
0.54846287 -0.8035804 0.025569974

out.bias f4 [3]
00000000: d642 073f bac1 8a3e 5589 39bf
0.5283636 0.27100927 -0.7247518
