TaxiFareRegrModel.pt (torch_old, 109730 bytes, 20 tensors)

embeds.0.weight f4 [24, 12]
000000 bd f6 e2 3e e4 5f 39 be c6 74 ef be 54 89 18 3f
       0.4432887 -0.18102986 -0.4676878 0.59584546
000010 19 9b 2d 3f 81 bb 10 bf d2 fd ab 3f 17 78 3b 3e
       0.67814785 -0.5653611 1.3436835 0.1830753
000020 64 5a 8c bf 09 04 91 3f d3 8a c7 3e 0d c3 a6 be
       -1.0965085 1.1329356 0.38973102 -0.32570687
000030 b0 77 0d 3e f4 1b aa bf 98 e5 7a 3e 35 f3 f3 3e
       0.13815188 -1.3289781 0.24501646 0.4764649
000040 3a cb eb be a8 e1 a8 bf 4e 7a 88 3f f8 f2 f9 be
       -0.46053487 -1.3193865 1.0662324 -0.48818183
000050 dc ba 39 3e ed 29 95 3f 7b 89 22 bf c3 01 e0 3e
       0.18137687 1.165342 -0.6349103 0.43751344
000060 7b 06 91 3e 2f a6 91 bf e9 64 c4 be 39 71 62 3e
       0.28325257 -1.137884 -0.38358238 0.22113504
000070 52 05 15 be 0c 9b 11 bf 06 53 a8 bf b7 d8 83 bf
       -0.14552811 -0.5687721 -1.3150337 -1.0300511
000080 2b 06 6a bf 15 4c c8 3e f9 67 55 bf 61 14 29 3f
       -0.9141566 0.39120546 -0.83361775 0.6604672
000090 2c 1a 9a bf 19 d0 59 be 3b 3a 88 bf a8 ab a9 3f
       -1.2039237 -0.21270789 -1.064277 1.325551
0000a0 86 7a 89 be 87 7e 35 3e b8 00 e4 3e a0 87 4c 3f
       -0.2685129 0.17724048 0.44531798 0.7989445
0000b0 bc e4 e6 3e 38 e4 22 3e b2 17 e8 3d ad 03 68 be
       0.45096385 0.15907371 0.113326445 -0.22657652
0000c0 d0 e3 7f bf af 4f 5e bf b1 b4 b3 3f 9e 1a ae bf
       -0.9995699 -0.8684034 1.4039518 -1.3601873
0000d0 03 92 97 be 49 2e c0 bf 0e d9 fe be 60 7a 95 3f
       -0.29603586 -1.5014125 -0.49774975 1.1677971
0000e0 e7 33 4f 3e 17 48 24 bf 57 ef 49 3f b3 19 f5 3e
       0.20234643 -0.641725 0.7888083 0.4787117
0000f0 85 9f 99 3e 23 a8 a0 be 92 63 35 3f a7 2f 27 c0
       0.30004516 -0.31378278 0.7085506 -2.6122835
000100 02 eb 51 be 60 a6 12 c0 e9 a3 e1 bf ab 17 a8 3c
       -0.20499805 -2.2914047 -1.7628146 0.020519098
000110 58 05 80 bf 4c 11 2d 3f c6 96 59 3e bc 1c 52 3f
       -1.0001631 0.6760452 0.21248922 0.82075095
000120 5a 23 36 3e 63 10 8e 3f 48 20 16 3f 17 0a 22 bf
       0.17786923 1.1098751 0.5864301 -0.63296646
000130 6a 4c 25 bf f0 71 0f bf 42 f5 1b 3f f7 ef 20 be
       -0.64569724 -0.5603323 0.6092111 -0.1571654
000140 41 99 c4 3f 45 5b a0 bf 4a 92 33 be ca a1 9b 3f
       1.5359269 -1.2527853 -0.17536274 1.2158749
000150 f1 3a de 3f c2 5d 13 be d7 1c 55 3d c0 71 8f bf
       1.7361737 -0.14391235 0.052029457 -1.1206589
000160 91 fc 31 bf f8 27 39 3c 87 32 1d 3f e2 39 9e bf
       -0.6952601 0.011301033 0.61405224 -1.2361414
000170 c6 1c 19 bf b6 48 77 bf 9d f9 0a bf 36 ef 88 bf
       -0.5980953 -0.96595323 -0.5428713 -1.0698001
000180 8a 44 31 bf 5d 2b 65 bf a2 b6 28 40 0a 5e b2 3f
       -0.6924521 -0.8951929 2.636147 1.3934948
000190 7f 14 62 bc 7b 56 23 bf 1d e3 02 bf 64 64 ca 3d
       -0.013798832 -0.63803834 -0.511278 0.09882429
0001a0 a0 bd 08 3f 61 bc a3 3f 7f d9 13 3f 7b 84 05 bf
       0.53414345 1.2791864 0.5775375 -0.52155274
0001b0 90 9a 88 3f 29 1a 15 3d 8a 14 97 3f 5b 97 2a bd
       1.0672169 0.0364019 1.1803143 -0.04164825
0001c0 a4 c7 9b bf e9 90 1b 3f f1 ee 86 be fa ab 7d bf
       -1.21703 0.6076799 -0.26354173 -0.9909054
0001d0 3a cb 68 3f f3 cd be 3f 30 a1 a3 bf c4 6c 35 3e
       0.909351 1.4906601 -1.2783566 0.17717272
0001e0 2b 04 85 be 5c 4c c6 3f fa bc a9 be b4 c7 99 be
       -0.25979742 1.5492053 -0.3315199 -0.30035174
0001f0 e6 a5 16 3f ad 59 54 bf 62 f1 84 bf 67 53 2e 3f
       0.5884689 -0.82949334 -1.0386164 0.6809601
000200 06 cc e1 3e 05 2e 11 bf 0d 6e e5 bf 4d 94 1b bf
       0.4410097 -0.56710845 -1.792421 -0.60773164
000210 d7 d3 c0 3e c0 81 64 3f a1 d7 3b bf c2 c0 e7 3f
       0.3766162 0.8926048 -0.733759 1.81057
000220 77 6c 3b 3f 23 0e 6b 3f 3a 0b 5b 3f c9 c3 72 bf
       0.7321238 0.91818446 0.85564005 -0.94829994
000230 72 de 9f bf 02 fb f9 bf 30 9f da bc f1 3c 28 bf
       -1.248976 -1.9529727 -0.026687235 -0.6571799
000240 64 aa b4 bf b8 71 c4 bd a7 7a 70 3f 22 13 67 3f
       -1.4114499 -0.09592003 0.9393715 0.9026357
000250 83 c7 ab bb b8 e7 87 3f 2b 48 81 bf 8d 5a 10 40
       -0.0052422895 1.061759 -1.0100149 2.2555268
000260 68 5e 39 be 2d 51 be 3e c0 8a a6 3f 55 db b3 bf
       -0.1810242 0.37171307 1.3011093 -1.405131
000270 e9 db e0 3f 4c 02 a3 3e 5b 9b 34 bf 08 62 87 bf
       1.7567111 0.3183769 -0.70549554 -1.0576792
000280 2b f7 61 bf 6a fe 95 bd c1 ed 0f 3e c9 f1 b8 3e
       -0.88267773 -0.07323916 0.1405554 0.36121967
000290 d6 d2 43 be ac f6 95 bd 95 44 d4 bf ed e7 cf bf
       -0.19123396 -0.073224396 -1.658343 -1.6242653
0002a0 62 b2 fc 3d a6 d8 b0 bf 99 d2 84 3f e7 97 7b 3f
       0.12338711 -1.3816116 1.0376769 0.9827866
0002b0 7f 47 d9 bf 03 bb 82 3d d4 4b ad 3f 16 89 9b be
       -1.6974944 0.06383326 1.3538766 -0.30378026
0002c0 9d 0a 87 bf 0d dc d7 3e 40 c3 8c 3f 2a 8b 4f bf
       -1.0550114 0.42160073 1.0997086 -0.8107172
0002d0 a8 3b 95 bd d5 30 8d be 25 8c 85 bd 16 e5 08 3e
       -0.07286769 -0.27576318 -0.06520871 0.1336864
0002e0 b8 99 64 3f fb f3 82 3f 8b 51 4a be 2a 2c f7 bf
       0.89297056 1.0230707 -0.19757669 -1.9310353
0002f0 4b 70 8a 3e 08 26 4f bf 0e ad cd bf 72 a9 56 bf
       0.27038798 -0.80917406 -1.6068437 -0.83852303
000300 1f 7a b3 bf 63 de af bf 93 d4 fe be b8 4d b2 bf
       -1.4021643 -1.3739742 -0.49771556 -1.3929968
000310 9c dd 76 bf ba cb 78 bc ba 53 97 3f ea fe e0 3f
       -0.964319 -0.015185291 1.1822426 1.7577794
000320 eb 01 f7 bd 6d 1a 88 3e 64 13 b0 be d5 31 b1 be
       -0.12060913 0.2658266 -0.34389794 -0.3460833
000330 b4 25 00 bf d9 f3 06 c0 a6 ea 77 bf 68 1b 9c bf
       -0.5005753 -2.1086333 -0.9684242 -1.2195864
000340 79 2c d0 3d 47 96 c2 3e 65 2e c6 bf 32 bc 8c be
       0.101647325 0.38005278 -1.5482908 -0.27487332
000350 6d 5a 40 bf 12 20 d0 be 2c ae a1 be 94 07 a4 3f
       -0.7513798 -0.40649468 -0.31578195 1.2814813
000360 cf c0 d7 bf 26 11 32 bf 44 4d 17 bf 75 63 75 bf
       -1.6855716 -0.69557416 -0.59102273 -0.95854884
000370 5e f4 4a 3f 2f 4d c2 be 2a e3 f6 3e 7a b8 6e bc
       0.79279125 -0.3794951 0.48220187 -0.01457035
000380 45 1e 7d bf 15 53 fe 3d ce 0f 87 bf 1f fe 6b bf
       -0.9887431 0.124181904 -1.0551698 -0.92184633
000390 af ca c1 bf d1 a6 8a 3e 2a 46 65 bf 1b e1 90 be
       -1.5139979 0.27080396 -0.89560187 -0.28296742
0003a0 58 63 ad 3e 90 8d fa 3d c3 38 fa 3f 3f 17 a2 be
       0.33864856 0.12234032 1.9548572 -0.3165836
0003b0 d0 3b a6 3f a6 57 ce be 66 6a 06 bd d1 8f 9b 3f
       1.2987003 -0.40301245 -0.032816313 1.2153264
0003c0 eb a4 ec bf 34 99 26 bf 5c 29 a8 bd b7 b2 14 bf
       -1.8487829 -0.6507752 -0.08211014 -0.580852
0003d0 c2 78 43 be e3 74 70 bd e2 5f 07 bf da f1 23 c0
       -0.19089034 -0.05870522 -0.5288068 -2.5616364
0003e0 cd 42 f5 3e 83 0f 0a 3f b4 a4 4a bf 27 5e 78 3f
       0.47902527 0.5392992 -0.7915757 0.97018665
0003f0 61 5b 9b bf d1 94 a8 be 31 fd 91 bf 63 7e b6 be
       -1.2137262 -0.32926038 -1.1405393 -0.356433

embeds.1.weight f4 [2, 1]
000000 9a b9 14 be 7c a8 6f 3e
       -0.14523926 0.23404115

embeds.2.weight f4 [7, 4]
000000 d0 93 a0 3e 82 be a4 3e 81 5f 55 3f 8c 30 e3 bf
       0.31362772 0.32176596 0.8334885 -1.774919
000010 92 41 e8 3e 60 f8 34 bf 1b 75 8f 3f 5c 50 d6 3e
       0.45362526 -0.7069149 1.1207613 0.41858184
000020 f7 dd c2 3f 81 65 ac bf 9b 38 ba bf ca b2 d5 3e
       1.5223988 -1.3468477 -1.4548525 0.41737968
000030 44 f7 1f 3f b7 64 b6 be 9f ea fe bf e8 89 d0 bf
       0.6248667 -0.35623714 -1.9915351 -1.6292086
000040 24 c1 15 bf 15 80 b2 be ff 39 c8 3f c7 10 0d 3f
       -0.58497834 -0.34863344 1.5642699 0.55103725
000050 92 43 c7 3f 32 46 04 bf e7 ea 9c bf cd 2f bb be
       1.5567496 -0.5166961 -1.2259187 -0.36559907
000060 01 da 32 3f 37 f8 40 bf 03 a8 0d bf 89 4c 12 3e
       0.698639 -0.75378746 -0.5533449 0.14287008

bn_cont.weight f4 [6]
000000 3e 4f f3 3e fa 26 27 3f 2b 14 23 3f 7f 48 e1 3e
       0.47521394 0.6529385 0.6370265 0.44000623
000010 28 55 c7 3e b9 93 3f 3f
       0.38932157 0.7483478

bn_cont.bias f4 [6]
000000 a5 25 91 3d 4e 41 e3 bb 27 3b 29 3d 5b d9 c4 bd
       0.07087258 -0.006935275 0.041316178 -0.0961177
000010 42 e5 d8 bd 21 33 16 bc
       -0.105906025 -0.0091674635

bn_cont.running_mean f4 [6]
000000 76 01 23 42 ea f3 93 c2 ef 01 23 42 ed f2 93 c2
       40.751427 -73.976395 40.75189 -73.974464
000010 7d 95 ac 3f ca 00 54 40
       1.348312 3.3125482

bn_cont.running_var f4 [6]
000000 1c f0 2d 3a 90 db 84 3a 54 4f 70 3a ef 51 8a 3a
       0.00066352054 0.0010136236 0.0009167094 0.0010552983
000010 19 a5 13 3f ae 3e 31 41
       0.57673794 11.077803

layers.0.weight f4 [200, 23]
000000 82 e1 a7 3c d1 cb 05 bd d2 d0 6c 3d 8f 7b 4c bd
       0.020493273 -0.032665078 0.057816334 -0.049922522
000010 e3 6f 88 bd 7e e6 a1 3d 3c 49 30 3d b7 02 be bc
       -0.06661966 0.07905291 0.04303859 -0.023194654
000020 4e c8 fa bc 5f d1 80 3c ae bc 3d bd 4d a0 6f 3d
       -0.03061309 0.015724836 -0.046322517 0.058502484
000030 21 05 91 bc 68 3c bf bc 37 6b ab bd 7f 62 f0 3c
       -0.017702641 -0.023344234 -0.08370059 0.029343842
000040 dd a8 0b bd 4b 8b 26 be a8 f8 1f 3e 9f 4b 0d be
       -0.034096587 -0.16264074 0.15622199 -0.13798378
000050 5f 67 75 3e c5 a2 7b 3d 4a 64 58 3e 05 61 0a 3c
       0.23965214 0.061434526 0.21132007 0.008445983
000060 80 82 7b bb fd 2a 0b 3c 2c e5 30 3b 78 0e 5f bc
       -0.0038377345 0.008494136 0.0026992066 -0.013614289
000070 e5 26 11 3b 8a 8b 89 bc 21 ec a5 39 ea fe 07 3c
       0.0022148427 -0.01679017 0.00031647182 0.008300522
000080 95 05 0b 3c 5e 5f f4 b8 1b 4e 36 bc 8e e0 d8 3c
       0.008485218 -0.0001165259 -0.01112702 0.026474264
000090 df 79 ee 3b 6c 74 35 3c 0d ab b5 39 9e 53 f8 3a
       0.0072777118 0.01107512 0.00034650453 0.0018945818
0000a0 38 fd df bd 36 d9 96 3d d5 98 b0 bc eb ee 67 bb
       -0.109369695 0.073656484 -0.021557251 -0.003539021
0000b0 1d 40 ef 3b 5b 33 68 3e 04 87 de 3b 5a 96 f5 bb
       0.007301344 0.2267584 0.0067909975 -0.00749473
0000c0 4d a9 35 bb f5 4c 34 3c 52 f8 05 3b cb e1 f9 bb
       -0.002771932 0.011004676 0.00204422 -0.0076257936
0000d0 d6 d3 d8 3b 48 e4 36 3b e5 ff 88 bc fc 14 b9 bb
       0.0066170497 0.0027907062 -0.016723583 -0.0056482535
0000e0 ed 7a 97 3c be 6c 24 3b b3 b3 c5 bc 47 21 cf bb
       0.018491233 0.002508923 -0.024133539 -0.0063211056
0000f0 22 de e1 3b d2 0b 3b 3b b8 45 bf 3b 66 6b 7b be
       0.0068929354 0.002854098 0.0058371685 -0.24552688
000100 6b a4 02 3e a2 2a 0c be ce c1 9f 3e d7 85 76 bd
       0.12758033 -0.13688138 0.3120255 -0.060186233
000110 28 e4 8c be c0 d4 cf bd 16 f0 90 3c 42 74 2b bd
       -0.2751782 -0.10148001 0.017692607 -0.04185892
000120 52 a4 b9 bd 0a 56 63 bd 49 89 fe 3d 9c 62 0a bd
       -0.09064545 -0.055501975 0.12428529 -0.033785447
000130 4f d8 95 bd 09 06 95 3d be 2c 86 bd ca 28 91 3d
       -0.07316648 0.07276542 -0.06551503 0.07087858
000140 fc 0f 0c bc 37 d9 22 ba be 31 3c bc 1e 03 c0 bd
       -0.008548733 -0.0006212177 -0.011486469 -0.093755946
000150 2a 05 24 3c 91 d0 cc bd 94 2b a9 3d e5 60 c7 3c
       0.010010997 -0.100007184 0.08260265 0.024338195
000160 df f4 ee bb 4b 93 bc 3a 6c 9c 90 be 76 92 8f be
       -0.0072923745 0.0014387158 -0.2824434 -0.28041428
000170 22 d9 4d bd 86 09 74 3d 2b f0 41 3d 47 df 19 3d
       -0.050255902 0.059579395 0.047348183 0.03756645
000180 d8 e4 08 bd 70 00 4e 3d 60 d2 cf bb 66 c5 7c 3c
       -0.033421367 0.050293386 -0.0063422173 0.015427923
000190 9c bb c4 bd 66 7b 2a 3c 6b fe 92 bd 67 58 a7 3d
       -0.09606096 0.010405397 -0.071774326 0.08171158
0001a0 b4 a0 40 3c c0 71 a4 3b 45 3c d2 ba 1e 65 07 3c
       0.011757065 0.005018443 -0.001603969 0.008263854
0001b0 fb 0e bf 3c a3 95 0f 3c 2f bf 49 be 37 ea 88 3e
       0.023322573 0.0087637035 -0.19701837 0.26741192
0001c0 46 48 56 be b3 bb 18 3d 0a 4a 2d be c1 75 14 3d
       -0.20926008 0.03728838 -0.16922775 0.03624511
0001d0 97 67 66 bd a5 4d 14 3d 44 90 fb bd 6c 75 2c bd
       -0.056251135 0.03620686 -0.12283376 -0.04210417
0001e0 ba 7c 3f bd 51 ea c9 bd 3b f5 8a 3d 4f a1 a2 ba
       -0.046749808 -0.098591454 0.06785055 -0.0012407693
0001f0 1a ce e4 bd cc 30 31 3e 93 16 0d be fc 8b 1d be
       -0.11172123 0.17303771 -0.13778143 -0.15385431
000200 54 5f 32 bd c6 19 ea 3d 81 23 de bd a6 1b 22 3d
       -0.043547943 0.11430697 -0.108466156 0.03957715
000210 83 5c be bd a0 83 2f 3e 50 fc ef bb 87 60 7a bd
       -0.09294989 0.17140055 -0.007323779 -0.061127212
000220 34 7e d7 3c 40 b8 10 3e 45 55 4c bd ca 39 07 3e
       0.026305296 0.14132786 -0.049886007 0.13205639
000230 45 ef aa 3c b9 99 0c 3c a2 36 b4 ba 09 a2 b0 bd
       0.020866046 0.008581572 -0.0013749192 -0.08624656
000240 32 db 01 be da dc 51 bd 21 1f 14 be 9c ab a1 bd
       -0.12681273 -0.05123601 -0.14465 -0.0789406
000250 4e 41 7e 3d f2 bc 70 bb f4 f7 9b bd 5c 76 6b be
       0.062074 -0.0036733714 -0.07615653 -0.2299437
000260 c6 1e 24 3e a7 a7 74 be 73 00 bb bd 3b b6 86 3e
       0.16027364 -0.2389208 -0.09130945 0.26310906
000270 9c ad 88 bd 17 e0 20 3e d6 5f 05 be 19 7c cc 3c
       -0.06673738 0.15710483 -0.1302484 0.024961518
000280 19 8f d4 bd 40 6b d7 3c db b2 b5 bd 0a 4c 0d 3e
       -0.10378856 0.026296258 -0.088720046 0.13798538
000290 6d 2d bc bd 0a 21 15 3e 80 c3 c7 3d 02 3c 04 be
       -0.09188352 0.14563385 0.097540855 -0.12913516
0002a0 81 6c cc 3c 9b 95 ff 3d ed cb 91 bd 18 c6 3f be
       0.024954082 0.12479707 -0.07118974 -0.1872791
0002b0 dc ae 09 3e 15 ab 2e be 65 dd 6e bb a4 8c f3 bd
       0.1344561 -0.1705745 -0.003644788 -0.118920594
0002c0 57 c1 bb bd 38 07 ad bd e8 d5 84 3b ac 04 f5 3d
       -0.09167736 -0.084486425 0.00405382 0.11963782
0002d0 b1 d9 7a bd c4 31 24 be 1c 5c a6 3d a6 16 44 be
       -0.061242763 -0.16034609 0.08123037 -0.19149265
0002e0 73 8d 05 bc 87 1c a4 3c 3a c4 97 3c 2d b6 a3 bc
       -0.0081514 0.020033134 0.018526185 -0.01998433
0002f0 ad a7 6a bc 24 35 a4 3c fa ef 66 3c 7a 59 2b bb
       -0.014322204 0.02004487 0.014095301 -0.0026145861
000300 c4 da d8 bc 28 bf 8b 3c 30 7e 46 bc c2 67 47 bc
       -0.026471503 0.017058924 -0.012115046 -0.012170734
000310 1b 99 84 3d 2e 00 47 3c b4 1e 6b bd 96 94 24 3c
       0.06474515 0.012146039 -0.057402328 0.010045191
000320 a0 70 c4 bc 0f d4 99 3d 85 f2 cb bc 0f a5 bc 3b
       -0.023979485 0.0751115 -0.024895916 0.005756981
000330 5f f7 8c bd 90 88 cb bc 73 e3 9e 3e 94 0a b3 3c
       -0.0688312 -0.024845392 0.31032905 0.02185563
000340 bc 13 e6 3b e1 35 c7 bd 2e 33 eb bc 40 43 9e bc
       0.0070213955 -0.097270735 -0.028710928 -0.019319177
000350 96 31 de ba 6e 38 10 3d 1c cf a9 bc a5 73 44 bd
       -0.0016952034 0.035210066 -0.02072864 -0.04796185
000360 39 80 b1 3d 57 4c 89 3a c8 d4 0f 3d b3 d7 4c be
       0.08667035 0.0010475022 0.035115033 -0.20004158
000370 bc 27 2c 3d 9e f3 12 3d d3 53 b3 3c 0f ee be 3c
       0.04203008 0.035876863 0.021890556 0.023306875
000380 24 42 8a 3e 31 49 19 be 54 07 74 3e aa ee 66 be
       0.27003586 -0.14969327 0.2383092 -0.2255198
000390 46 e6 15 3e 32 ff 5a be da 03 73 ba ef cc 63 3c
       0.14638624 -0.21386412 -0.0009270288 0.01390384
0003a0 75 cf 08 3d 42 c8 d6 bc da 88 bc 3c 47 e5 fa 3b
       0.03340097 -0.026218537 0.023014475 0.0076567265
0003b0 55 23 01 bb a1 47 19 3c ee d3 f1 3b 5a da 01 bc
       -0.0019704897 0.009355457 0.0073800003 -0.007925594
0003c0 f6 49 c5 3c 72 df 92 bc fe ba 3a 3e 7c 46 ef 3b
       0.024083119 -0.017928813 0.18235394 0.0073021036
0003d0 11 d1 82 39 90 fa ca ba c5 57 50 3c 7c b7 91 bd
       0.000249513 -0.001548605 0.012716238 -0.07115075
0003e0 17 60 a1 3c 8c 24 07 3e bb 00 da 3b ed e5 bd 3d
       0.01969914 0.13197535 0.006652919 0.092723705
0003f0 55 b3 a5 be ec e1 10 bd a8 78 b9 3a 9e eb a4 bc
       -0.32363382 -0.035371706 0.0014150338 -0.020131882

layers.0.bias f4 [200]
000000 11 5a 94 bb 53 63 2b 3e 19 be 5d 3d 23 21 25 3e
       -0.0045273383 0.16737108 0.05413637 0.16125922
000010 40 02 85 3e 15 fa 59 3d 27 d4 fd 3d ff b0 2a bd
       0.2597828 0.053217012 0.123939805 -0.041672703
000020 d2 57 aa 3d 79 1f 63 3e ff f5 1c 3d 63 8f 90 3e
       0.08317532 0.22179975 0.038320538 0.28234395
000030 94 6a 3f bd 6a 9a 0c 3e fd 3e fa 3d 24 27 37 3d
       -0.0467325 0.1373078 0.12219045 0.04471506
000040 96 74 22 3e 29 41 09 bc ac d2 20 bd 3d 50 6f 3e
       0.15864787 -0.008377352 -0.039263412 0.23370452
000050 95 9e 09 3e f9 2a 55 be bb 1d 2b bd 16 09 6b 3e
       0.134394 -0.20817174 -0.0417764 0.22952685
000060 ee 74 8e bc 12 62 23 3e 3d 21 f4 3d be fe 10 3e
       -0.01738974 0.1595538 0.11920402 0.14159676
000070 60 8c b4 3d 08 84 b2 3e ff 2a 4c 3d 69 5f aa bc
       0.08815837 0.34866357 0.04984569 -0.020797448
000080 f9 34 e6 3c d1 b4 b4 3d 36 2c c0 3c 74 63 25 3e
       0.028101431 0.088235505 0.023458581 0.1615122
000090 83 fc a0 bd 9d 49 0a 3e 0a 8e 89 3e 33 6e 85 3e
       -0.07860663 0.13504644 0.2686618 0.26060638
0000a0 11 30 2d bc f0 27 c0 bc 57 04 89 3e 79 18 8d 3e
       -0.010570542 -0.023456544 0.26761124 0.27557734
0000b0 c0 7a a2 bb 22 a3 2c be 0b 8c a3 3d bc cb 3f 3d
       -0.0049584806 -0.16859105 0.079856955 0.046825156
0000c0 17 78 49 bd 74 9a f4 bd b5 9b 5b be 9f 97 e9 3d
       -0.049186792 -0.11943522 -0.21446116 0.114058726
0000d0 b8 95 41 3d 49 ae 57 3d 14 f7 eb 3d 05 78 e8 bd
       0.047261924 0.052656446 0.11521736 -0.11351017
0000e0 d0 4f 50 be ba 83 78 3e 58 a6 ab 3d 28 a5 53 be
       -0.20342946 0.24269 0.08381337 -0.20668471
0000f0 db 73 e8 3d 70 d7 0d be 94 0e bb 3e 9c 13 18 3c
       0.11350223 -0.13851714 0.3653456 0.009282019
000100 f8 0a 83 3e 2c 4d 03 3c 28 1b 3f 3e f9 d5 38 be
       0.25594306 0.008014005 0.18662703 -0.18050374
000110 80 f5 2f be d2 88 87 3e c0 5d 25 3e 74 08 da 3d
       -0.17183495 0.26471573 0.16149044 0.106461436
000120 ff e2 32 3e 4a e4 83 3e b0 7c 71 3e f8 bc 24 3e
       0.17469405 0.25760108 0.23582721 0.16087711
000130 c4 fd b9 3a f1 81 8d bc 4d a5 79 3e eb 8b e2 bd
       0.0014190008 -0.017273875 0.24379463 -0.110618435
000140 2c 48 78 bd 6c 6f 25 3e ba 8e 09 be 98 65 9f 3e
       -0.060615703 0.16155785 -0.13433352 0.31132197
000150 73 17 9c 3d b0 b7 e7 3d 18 d6 aa 3e b0 92 cd bd
       0.0762166 0.113143325 0.33366466 -0.10037744
000160 c0 c9 0c 3e 08 e5 c0 bd 18 73 5e 3e e1 2a dd 3c
       0.13748837 -0.09418684 0.21723592 0.026997985
000170 53 37 8d 3d d5 f9 2d be f3 7d d6 3d d4 98 ea 3d
       0.06895318 -0.16989835 0.10473242 0.11454931
000180 e5 fa 83 3e 1e 92 c1 3d 7a c1 31 bd b6 84 cc bd
       0.25777355 0.09451698 -0.043397404 -0.0998625
000190 de f1 52 3e c5 39 b4 3d 66 1f ee bd 30 11 56 3d
       0.20600078 0.08800081 -0.116270825 0.052262485
0001a0 02 20 e8 bd b4 81 42 3e 58 d3 34 3e 4d 5e 24 3d
       -0.1133423 0.1899479 0.17658746 0.040128995
0001b0 0c b3 5a 3e dc ec ea 3c f9 ca 4a 3e ff 4d 49 3d
       0.21357363 0.028677396 0.1980399 0.04914665
0001c0 a0 6d 06 3d 1b f6 f8 bc fc bf 04 3e c7 01 b0 3d
       0.03281939 -0.03039079 0.12963861 0.08594089
0001d0 be a6 6e bd a1 c9 1a 3e ab ad 15 3d 0a 3d aa be
       -0.058264486 0.15115978 0.036542576 -0.33249694
0001e0 07 3b dd 3d e3 92 1b 3e f2 22 29 3e 54 ae a2 3d
       0.10802274 0.15192752 0.16517237 0.07943407
0001f0 73 15 4d 3e e0 8c 98 3e 48 fe 10 3d 7c bd aa 3c
       0.20027713 0.2979498 0.03539875 0.020842306
000200 ea c5 a4 be 66 fb 6e 3e 4b 7c 56 3e 67 09 05 3c
       -0.32182246 0.23338088 0.20945852 0.0081199175
000210 ed 03 78 3e b5 a3 34 3d 45 bc 84 3e 16 db 9a bc
       0.24220248 0.044101436 0.25924888 -0.018903296
000220 c7 46 87 3d 4a 5c 9b 3e 9a 42 19 3d fd 34 79 3d
       0.066052966 0.30343848 0.03741703 0.06084155
000230 17 8e 92 3e f7 6e 1d 3e 67 9c 48 3d 71 bc 5c 3e
       0.2862403 0.15374361 0.048977282 0.2155626
000240 74 e6 25 3e 83 42 9b bd c2 48 db 3c 29 0d e5 bc
       0.16201192 -0.075810455 0.026768092 -0.027960377
000250 35 b7 c5 3c bf 1d 4c 3e 75 15 11 3e 93 c6 8d 3d
       0.024135211 0.19933222 0.14168341 0.06922641
000260 a8 b5 87 bb d8 de 04 3e be 01 86 3e f2 95 04 3d
       -0.004141528 0.12975633 0.26173204 0.03236956
000270 5e 7d 7f bd 4a 07 2f 3e a0 98 0d bd ce ef 9d bd
       -0.06237542 0.17092624 -0.034569383 -0.07711755
000280 8c f5 08 3e ba 09 6b 3c 81 c7 cd 3d 7f 43 b3 bd
       0.13374919 0.014345581 0.10047818 -0.08753108
000290 45 20 d7 bd 02 c6 82 3d 08 00 62 3e 7e a8 22 be
       -0.10504202 0.06385423 0.22070324 -0.15884587
0002a0 13 85 cd 3d 7c 34 06 be a6 86 dc bd 55 3a f9 3d
       0.100351475 -0.13105959 -0.1076787 0.12169329
0002b0 2c 9d 48 bd e4 ce 13 be 54 c4 c7 3d d2 41 9c bc
       -0.048978016 -0.14434391 0.097542435 -0.019074354
0002c0 98 de 8f 3e 46 03 26 ba 2b c5 5b 3e 56 2a f3 bb
       0.28099513 -0.0006332885 0.21461932 -0.0074208183
0002d0 11 72 0e 3d 8d 00 4b 3d 55 c9 23 3e 9c cd 9d 3d
       0.03477675 0.049561072 0.15994771 0.077052325
0002e0 7f 65 27 be 51 ce b2 3d c0 1d 0e bd a0 13 fa bd
       -0.16347311 0.08730758 -0.03469634 -0.122107744
0002f0 61 dd b4 3e f7 61 6b bc f1 54 9b bd 91 3b a0 bc
       0.3532515 -0.014366618 -0.07584561 -0.019559653
000300 d4 30 58 3e 38 03 0c 3e 31 dc dd 3c f3 f2 9e 3e
       0.21112376 0.13673103 0.027082535 0.3104473
000310 70 42 11 bc a4 95 7b 3e 39 2f 21 3e c1 7e e8 3d
       -0.008865938 0.24568802 0.1574067 0.113523014

layers.2.weight f4 [200]
000000 01 79 4a 3e 64 fe 26 3f 7b d2 50 3f 4f 91 3b 3e
       0.19772722 0.6523192 0.8157117 0.1831715
000010 1c b7 d9 3e bf 60 03 3f 4f 2f f8 3c 18 1d 2e 3f
       0.42522514 0.513195 0.030295996 0.68013144
000020 e4 85 75 3e 5f a7 d5 3e 7d ce f3 3d b8 61 93 3e
       0.23976856 0.41729257 0.11904619 0.2878549
000030 2d 47 cd 3d c0 2d 03 3f f2 c0 52 3f 1d bc 53 3f
       0.10023341 0.51241684 0.8232566 0.82708913
000040 df 1a 02 3f a2 a1 94 3e 36 73 21 3f 4e 95 5c 3e
       0.5082225 0.29029566 0.6306642 0.2154133
000050 94 c6 27 3f f2 24 25 3f e0 e9 6c 3f 9d 68 5d 3f
       0.6553738 0.645095 0.92544365 0.8648775
000060 55 f9 30 3e f1 d7 5d 3e a7 6a 39 3f da de cc 3e
       0.17282613 0.21664406 0.72428364 0.40013772
000070 eb ba 1b 3f 5e ff e1 3e dd 45 f2 3d cd a1 3f 3f
       0.6083209 0.44140142 0.118297316 0.74856263
000080 2b c8 0d 3e ee 0f 3c 3f 7a e4 45 3f 4a 80 57 3f
       0.1384589 0.73461807 0.7730175 0.8418013
000090 43 30 df 3e 59 be 19 3e ca c7 8f 3e c4 48 35 3f
       0.43591508 0.15014018 0.28082114 0.70814157
0000a0 f7 17 76 3e 66 20 05 3f cd ec 54 3f cc e3 4e 3e
       0.2403258 0.5200256 0.8317383 0.20204085
0000b0 23 1e e2 3e f5 05 1c 3f ea c9 fa 3e ad cd 6e 3f
       0.44163617 0.6094659 0.48982173 0.93282586
0000c0 f6 0b 3b 3f 14 06 f0 3e e8 cb 0f 3e 7b f1 70 3f
       0.73065126 0.46879637 0.14042628 0.9411847
0000d0 8b 64 2d 3f e3 0b d5 3e d0 92 03 3e 2c af 69 3f
       0.6773154 0.4161063 0.12848973 0.91282916
0000e0 b7 da 30 3f da 58 63 3f e8 0c 70 3f b5 db 38 3f
       0.6908373 0.8880745 0.93769693 0.72210246
0000f0 ca 30 32 3f 5d 18 2e 3f 44 be 7d 3e cd 5f bd 3e
       0.69605696 0.68005925 0.24779612 0.36987153
000100 37 49 d4 3e 1e 47 bf 3d 80 76 88 3e 2b 60 28 3f
       0.41462108 0.093397364 0.26652908 0.6577174
000110 fd f6 2a 3f 44 f1 80 3e e2 33 fe 3e 92 83 27 3f
       0.66783124 0.2518407 0.49648958 0.65435135
000120 71 bd 13 3f 2d 8c 26 3f c0 c3 52 3e 24 10 03 3f
       0.5771094 0.6505764 0.20582485 0.51196504
000130 3a c4 16 3d 96 a3 d1 3e b8 d4 0d 3f 8b 1c b0 3e
       0.03680823 0.4094512 0.5540271 0.34396777
000140 e3 5d 5b 3f 09 5f 48 3e f0 95 49 3f f5 04 4c 3e
       0.85690135 0.19567503 0.7874441 0.19923766
000150 37 2e a0 3e bf 0e 8c 3e 84 a3 8e 3d 0d f4 b5 3e
       0.3128526 0.27355 0.06964782 0.35537758
000160 a5 4e be 3e 4b 6e 13 3f 13 fb 23 3f ec 96 00 3f
       0.37169376 0.5759017 0.64054984 0.5023029
000170 09 68 a4 bd 65 d3 0d 3e 01 7b 65 3f a7 d2 b8 3e
       -0.08027656 0.13850172 0.89640814 0.36098215
000180 76 09 a7 3e 46 12 7f 3e ee 92 2c 3f e0 5d eb 3d
       0.32624406 0.24909315 0.67411697 0.114925146
000190 c9 af 35 3f 15 82 cf 3e e2 d9 10 3f 4b 0b a6 3e
       0.7097135 0.40528932 0.5658246 0.3243049
0001a0 df 50 97 3d 4a c6 41 3f 6f 03 7b 3e da 5d 42 3f
       0.07388472 0.7569319 0.24513029 0.75924456
0001b0 14 6b 02 3f a5 92 66 3f c4 91 72 3f 56 5f 31 3e
       0.5094464 0.9006751 0.9475367 0.17321524
0001c0 3f 18 b0 3e 21 0b 78 3e 70 17 31 3e b3 da 1c 3f
       0.34393498 0.24222995 0.17294097 0.6127121
0001d0 d1 85 03 3f c5 c3 31 3f 77 6a 21 3f 19 1b 15 3f
       0.5137606 0.69439346 0.6305308 0.5824447
0001e0 d3 aa 45 3f 56 8c e3 3e 49 07 73 3e ad 18 0b 3f
       0.7721378 0.44443005 0.23733248 0.5433453
0001f0 a0 11 30 3f 2d ed 04 3f 86 b6 9b 3e d3 c2 2a 3f
       0.68776894 0.519244 0.30412692 0.6670353
000200 f6 50 22 3e b8 36 6d 3e 91 1c dd 3d 24 fe 7e 3e
       0.15851197 0.23165405 0.10796464 0.24901634
000210 65 f9 46 3e 08 17 3c 3f f5 0e 44 3f e3 b9 0f 3f
       0.19431074 0.7347264 0.7658532 0.56143016
000220 1d 60 50 3e cd 13 cb 3e ff 89 73 3f 93 3d fc 3d
       0.20349164 0.39663544 0.9513244 0.12316432
000230 59 e1 73 3f 8e 33 93 3e 7d 1a f3 3e 29 ba 1e 3e
       0.9526573 0.2875027 0.47481146 0.15500702
000240 9d 48 13 3f 78 98 57 3f f1 8b 12 3f 3c 24 0c 3e
       0.57532674 0.84217024 0.57244784 0.13685697
000250 7e 51 75 3f b8 93 b9 3e 90 2f 00 3f 09 d9 13 3f
       0.9582747 0.36245513 0.50072575 0.57753044
000260 8c 3e 63 3f 51 aa 4f 3f a7 7e 04 3f dc a9 eb 3d
       0.88767314 0.8111926 0.51755756 0.115070075
000270 18 02 6e 3f 2c 1f ef 3e 76 ca 7a 3e bd d0 10 3f
       0.92971945 0.4670347 0.24491295 0.5656851
000280 f1 7c 09 3f 24 12 dc 3e 90 31 dd 3e 5d 7c 61 3f
       0.5370627 0.4298259 0.43201876 0.8808039
000290 9b b3 c3 3e bb a5 03 3f 83 c3 a9 3e 68 63 e5 3e
       0.38222966 0.5142476 0.33156976 0.44802403
0002a0 03 40 20 3f 1b e6 bb 3d 9d bd 42 3f d8 c6 2a 3f
       0.62597674 0.091747485 0.76070577 0.6670966
0002b0 ab f6 ff 3e 03 78 56 3f f1 96 c1 3d ff 23 45 3e
       0.4999288 0.83776873 0.09452618 0.19252013
0002c0 2e 13 ce 3d 01 7f 45 3e 1a 15 c0 3d ac 8e 32 3f
       0.10062252 0.1928673 0.09379025 0.6974895
0002d0 da 0c 3a 3f 1f 41 a9 3e dc 77 fb 3d 5c 3d 5f 3f
       0.7267586 0.33057496 0.12278721 0.87203
0002e0 cd a4 df 3e e4 51 f6 3e b0 4e b7 3e ec ca 4e 3f
       0.4368042 0.48109353 0.3580222 0.80778384
0002f0 1b 52 38 3f 31 c0 8a 3e 3b d8 33 3f 0a 57 a1 3e
       0.72000283 0.27099755 0.70251817 0.31511718
000300 a8 b8 94 3e d6 55 7b 3f a3 80 10 3f e5 8f 09 3f
       0.29047132 0.9817785 0.56446284 0.5373519
000310 d2 2c 0e 3f da a1 5a 3f 80 46 c0 3e 17 97 1b 3f
       0.5553714 0.85403216 0.37553787 0.6077742

layers.2.bias f4 [200]
000000 ed 21 b1 bd 73 df a9 bd 23 26 25 3e d8 c5 da 3d
       -0.08649049 -0.08294573 0.16127829 0.10682267
000010 3d 17 0c 3e e6 47 f0 bd 7e 25 91 3d 53 cf e8 3d
       0.1368074 -0.117324635 0.07087229 0.11367669
000020 83 f9 c2 bd 6c 7e 0d 3e 26 29 8b 3d d5 8c 04 3e
       -0.09520247 0.13817757 0.06794958 0.12944348
000030 9e 03 7b bd e8 e7 ff 3d 15 9e a3 3d 3c f1 ed 3d
       -0.061282746 0.124954045 0.07989136 0.116182774
000040 8f 25 f7 bd 43 9a c1 3d ab d7 02 3e 62 67 0f 3e
       -0.120677106 0.09453251 0.12777583 0.14004281
000050 f6 f2 c7 bd 1a e1 c7 bd b6 e9 3d bd 41 85 e9 bd
       -0.09763138 -0.097597316 -0.046365462 -0.11402369
000060 1c 32 52 3d 59 0e 09 be 74 68 11 bc 2f ad 0c 3e
       0.05131732 -0.1338438 -0.008875001 0.1373794
000070 f4 35 e4 bd 12 fa 12 3e d2 a4 9d 3d f5 9d eb bd
       -0.11143103 0.14353207 0.076974526 -0.11504737
000080 62 16 34 bd ed 6a cf bd 02 a3 ed 3d 50 65 08 be
       -0.04396666 -0.10127816 0.11603357 -0.13319898
000090 ac 27 f6 3d 22 d4 d6 bd d7 70 dd 3d bf 38 eb 3d
       0.120192856 -0.1048968 0.10812538 0.11485433
0000a0 37 be 3f bd 5c ed 8f bd 1f 25 f1 bd d5 70 f0 bd
       -0.046812262 -0.070276946 -0.117746584 -0.11740271
0000b0 4d 97 91 bd de 28 eb bd ee 0f 97 bd c9 5a c9 bd
       -0.071089365 -0.11482404 -0.07376085 -0.09831769
0000c0 6a e8 1e 3e c2 92 a1 bd 3e d8 13 bd aa 46 62 bd
       0.15518346 -0.0788932 -0.036094896 -0.05524317
0000d0 75 fd 06 bd a0 5f ef bd 97 4f 49 3d ba bc da bd
       -0.03295656 -0.11688161 0.04914817 -0.10680528
0000e0 70 6c 04 3e b5 4b a6 bd 85 a2 be bd 4d 1e 9e 3d
       0.1293199 -0.08119909 -0.09308342 0.07720623
0000f0 e1 e5 e0 3d ff a7 04 3e ca c5 0f 3e 51 9a 06 3e
       0.10981346 0.1295471 0.14040294 0.13144805
000100 4c d4 11 3e 31 cd a4 3d c9 b9 e4 bd 30 9b db bd
       0.14241141 0.0804695 -0.11168248 -0.10722959
000110 da 9a e0 bd fd 9d e9 3d 8c e6 e6 3d f6 d8 ea 3d
       -0.109670356 0.11407087 0.11274442 0.11467163
000120 05 04 d6 bd 0f da dd bd 25 f2 37 bc 9f 5e da 3d
       -0.104499854 -0.10832607 -0.011227165 0.10662579
000130 27 90 98 bd 2f 9a d1 bd 69 93 c8 3d 11 ce a9 bd
       -0.0744937 -0.10234486 0.09793741 -0.08291257
000140 64 86 f6 3d 22 a9 84 bd 4b 0f e5 bd aa ec 83 bd
       0.12037352 -0.06477572 -0.111845575 -0.064416245
000150 95 0d f9 3d 48 b4 91 bd fb 7a 65 3d 93 d2 a3 bd
       0.12160794 -0.07114464 0.056025486 -0.07999148
000160 0d fd 3e bc f7 55 b2 bd a8 fe 2b bd f2 3d e9 bd
       -0.011657012 -0.08707803 -0.041990906 -0.11388768
000170 e6 91 6f bd e3 52 52 bd fe 4a d1 bd dc 18 7e 3c
       -0.05848875 -0.05134858 -0.10219382 0.015508857
000180 84 6f fa 3d 02 6d eb bd 03 52 d4 bd c6 d3 84 bd
       0.12228301 -0.11495401 -0.10367205 -0.06485705
000190 b0 a6 29 bd 7c 87 eb bd b5 39 20 be f5 44 f2 3d
       -0.04141873 -0.11500451 -0.15647013 0.11829559
0001a0 eb 95 80 bd 04 fc fd bd 3d c4 f1 bc 24 32 fd 3d
       -0.062785946 -0.12401584 -0.029512519 0.12363079
0001b0 7d 04 f0 3d 7e bc eb bd 52 aa 83 bd e7 9f e9 3d
       0.11719606 -0.115105614 -0.064289704 0.11407452
0001c0 17 a0 e6 bd 0c 77 04 3e 17 09 9f 3d 00 dc a4 3d
       -0.112610035 0.12936038 0.077654056 0.08049774
0001d0 0b d5 ef 3d 5e 7b 37 bd 9a b9 d4 bd 72 14 3a 3d
       0.117105566 -0.044795386 -0.10386963 0.045429654
0001e0 db 7b e4 3d cf 60 1a 3e 30 58 18 bc f8 e1 e6 bd
       0.11156436 0.15075992 -0.009298369 -0.11273569
0001f0 ed 90 db bd fc 1a 05 3e cf c0 bf bd 15 10 46 3e
       -0.10721002 0.12998575 -0.09362947 0.19342072
000200 02 d1 06 bd 09 c4 b1 3d 74 ba 52 bd 69 fe e6 bd
       -0.03291417 0.08679969 -0.051447347 -0.11278994
000210 4e 29 9d bd 01 d7 cb bd 86 45 d9 bd 0a 38 10 3e
       -0.07673894 -0.09953118 -0.10608964 0.14083877
000220 e3 31 d2 bc 36 1f e1 bd ea 61 f8 3d 25 be 70 bd
       -0.025658553 -0.10992281 0.121280506 -0.058775086
000230 6c 03 e4 3d bf 78 5e bd cc 45 08 3e d3 44 e7 bd
       0.11133465 -0.05431437 0.13307875 -0.11292424
000240 75 a5 e7 bd 14 3e eb bd 9a b9 f5 3d 60 2e ee bd
       -0.11310855 -0.1148645 0.11998291 -0.11629939
000250 d3 50 dd bc 82 56 ef bd 7f db 0d 3d 25 15 da bd
       -0.027016079 -0.11686422 0.034633156 -0.10648564
000260 47 01 3f bd 05 9c de bd cb 7e 15 3e 83 e1 5b 3d
       -0.046632078 -0.10869602 0.14599149 0.05368186
000270 72 fb e0 3d eb c9 8f bd ad 04 8c bd c0 a0 dc bd
       0.109854594 -0.07020935 -0.06836829 -0.10772848
000280 51 93 c4 bd 70 bd de bd 43 b8 ff bd d1 7a 8a bd
       -0.09598411 -0.10875976 -0.12486317 -0.067617066
000290 a9 64 e4 bd f6 b4 d2 bd c0 3f 52 bd cd 4d d9 bd
       -0.11152012 -0.10288422 -0.051330328 -0.106105424
0002a0 a4 9a dc bd 39 c3 b5 3d 43 44 d0 bd f0 c5 85 bd
       -0.10771683 0.088751264 -0.1016927 -0.06531894
0002b0 4b 67 0b be 9e fe ee 3d f3 f2 8e bd 91 f0 01 3e
       -0.13613622 0.11669658 -0.06979933 0.12689425
0002c0 ab 5d c1 bd 25 4f 73 bd ba ee 77 3d ae 15 ba 3d
       -0.09441694 -0.05940165 0.0605304 0.09086166
0002d0 be 6d f1 bd 5c 54 b3 3d 0e c1 b1 bd 17 83 e4 bd
       -0.1178851 0.08756325 -0.086794004 -0.11157816
0002e0 0c d8 f0 3d d5 23 f1 bd e8 9a a1 3d 2e 87 e8 bd
       0.11759958 -0.117744125 0.07890874 -0.113539085
0002f0 ef cb 01 3e 05 be 71 bc 5e 40 e2 3d 17 9a f0 3d
       0.1267545 -0.014754777 0.11047433 0.1174814
000300 0a 88 fa 3d 86 48 dd bd 5a c9 e2 bd a4 90 02 3e
       0.12232979 -0.108048484 -0.11073561 0.12750489
000310 ba d1 d7 bd ee 3c c6 bd 88 c9 a9 bc 8f 3b ac 3d
       -0.10538049 -0.0967959 -0.02072598 0.084097974

layers.2.running_mean f4 [200]
000000 0f 6e 01 3e e2 9a 25 3e 93 22 8b 3d 72 54 a5 3e
       0.1263964 0.16172364 0.06793704 0.3229099
000010 e4 f0 ab 3e 96 1b 34 3e c8 ce 55 3e a2 e9 84 3e
       0.33582222 0.17588648 0.20879662 0.25959498
000020 ea e7 26 3e 8c df 98 3e 54 e7 ef 3d 5d d4 a7 3e
       0.16299406 0.29858053 0.11714044 0.32779208
000030 0e d7 6c 3d 43 4b 5d 3e 39 5c 96 3e ee 60 86 3e
       0.05782228 0.21610741 0.29367235 0.26245826
000040 0c 3f 8b 3e 82 b7 eb 3d da f7 88 3e ce 45 64 3e
       0.27196538 0.11509611 0.26751596 0.22292253
000050 b2 4a e5 3e 12 d4 1d 3e 07 5e 0e 3e 6e 18 74 3e
       0.4478355 0.1541293 0.13903056 0.23837444
000060 13 52 a9 3d e0 43 ad 3e c9 97 b6 3e 77 c0 82 3e
       0.082676075 0.33840847 0.35662678 0.25537464
000070 dd 10 d7 3e c6 4e 09 3f 32 a1 4c 3e 2c ca c4 3d
       0.42005053 0.53635824 0.19983366 0.09608874
000080 0e 7d bc 3d 75 eb 44 3e ac 4e fb 3d bd bd 73 3e
       0.0920354 0.19230445 0.12270865 0.23802848
000090 23 c4 f6 3d 68 89 ca 3e d4 86 8c 3e 7e ec 91 3e
       0.12049129 0.39557958 0.27446616 0.28500742
0000a0 c3 2a 8c 3d 93 d7 b6 3d 5a 02 b6 3e 2d 2f 80 3e
       0.06844094 0.08927836 0.3554867 0.25035992
0000b0 e6 95 a6 3d 63 4d d7 3d 89 e1 8d 3e 94 1f 0b 3e
       0.081340596 0.10512807 0.27711132 0.13586265
0000c0 df 00 46 3d 7a cc 76 3d 75 a4 54 3d f0 97 4c 3e
       0.048340674 0.060253598 0.05191465 0.19979835
0000d0 f8 8d 2c 3e d3 77 e1 3e e9 03 49 3e 3b eb 18 3d
       0.16851032 0.4403673 0.19630398 0.03733371
0000e0 a8 dd 8b 3d aa 93 15 3f 05 64 ba 3e 3f 84 06 3e
       0.06829387 0.5842844 0.36404434 0.13136385
0000f0 b8 e3 a0 3e 3b 4a 0d 3d ab 1d 08 3f 50 ae 22 3e
       0.31423736 0.03449462 0.5317027 0.15886807
000100 68 2f 05 3f df 57 83 3e 3c 31 34 3e 88 de e4 3d
       0.5202546 0.25652978 0.17596906 0.11175257
000110 de c5 a9 3d 86 d9 bb 3e 6e f0 44 3e 72 54 42 3e
       0.08289693 0.36689395 0.19232342 0.18977526
000120 a6 7e 9a 3e 3b 4d 94 3e 5b 37 7c 3e 46 24 e0 3e
       0.3017475 0.28965172 0.24630491 0.43777674
000130 d1 db 8b 3e 2c dd 33 3e 0c 8e be 3e 58 48 5b 3d
       0.27316144 0.17564839 0.37217748 0.05353579
000140 2f 56 01 3e aa d8 3f 3e b1 5c fa 3c 29 17 8f 3e
       0.12630533 0.18734995 0.030561777 0.27947357
000150 d9 a5 94 3e 8e 6d 0b 3e 9e 91 03 3f e6 c2 9e 3d
       0.29032782 0.1361601 0.5139407 0.07752018
000160 e0 7d 19 3e aa 7b 1e 3e 98 45 53 3e cf 43 a6 3d
       0.14989424 0.15476862 0.20632017 0.08118402
000170 54 aa 7f 3e 41 fd 36 3c d5 55 ea 3e 9c 36 00 3e
       0.24967319 0.011168779 0.4576861 0.12520832
000180 15 d5 97 3e c2 1b 4b 3e 14 ab 24 3e 18 5a 5d 3d
       0.29654756 0.19834808 0.16080886 0.054041
000190 db 0e 42 3e 8e 9a 04 3e a3 79 43 3c 0d 2f 33 3e
       0.1895098 0.12949583 0.011930856 0.17498417
0001a0 2a c3 bd 3d 87 2f b6 3e dd c2 44 3e 4b 56 7d 3e
       0.0926574 0.35583135 0.1921496 0.2473995
0001b0 d9 cb e0 3e 8c 26 43 3e d3 b1 2f 3e 46 b3 b2 3e
       0.43905523 0.19057673 0.17157678 0.349024
0001c0 dd ab 20 3e dc 63 01 3e f4 6e 60 3e 42 10 5e 3e
       0.1569056 0.1263575 0.21917325 0.2168589
0001d0 36 a1 78 3e 98 bf 2d 3e 98 7c 7b 3e d7 24 2f 3c
       0.24280247 0.16967618 0.24559247 0.010689936
0001e0 f7 e6 99 3e 09 29 4a 3e 27 0a 3e 3e 30 0d 95 3e
       0.30059025 0.19742216 0.1855856 0.29111624
0001f0 63 db 89 3e b4 44 c0 3e f1 79 d4 3d 8e dc 04 3e
       0.2692519 0.37552416 0.10374821 0.1297476
000200 70 01 93 3c 5c 5a 8a 3e 5a 1e 25 3e ae dc e5 3d
       0.017945021 0.27022064 0.1612486 0.11223732
000210 8c d7 72 3e f6 62 57 3e fc 38 bc 3e f1 a7 2b 3d
       0.23715037 0.21033844 0.36762226 0.04190821
000220 67 04 e2 3d a7 0d b5 3e d6 ce 93 3e b8 bb fc 3d
       0.11035996 0.35361978 0.2886874 0.12340492
000230 48 8a b4 3e f6 7e 31 3e d5 8d 2b 3e cc 74 13 3e
       0.3526175 0.17333588 0.16753323 0.14400023
000240 4f 5d 10 3e e7 86 df 3d ce b7 15 3e 2e 4c f1 3d
       0.14098094 0.109144025 0.14620897 0.11782108
000250 83 c9 60 3e ca 9f 3c 3e 1d b0 53 3e 09 4e 56 3e
       0.2195187 0.1842033 0.2067265 0.20928206
000260 6e 8f aa 3d 1c 3f 29 3e fd 6a af 3e 28 2d 0e 3e
       0.08328138 0.1652798 0.34261313 0.13884413
000270 10 57 02 3e 16 88 32 3e 4e 78 d8 3d 96 76 cc 3d
       0.12728524 0.17434725 0.10569821 0.09983556
000280 80 04 b2 3e da 54 0b 3e af ad 92 3e 0c c2 70 3e
       0.34769058 0.13606587 0.28648135 0.23511523
000290 ab 86 9a 3d 64 24 68 3e 35 8c 4f 3e 16 1c 5a 3d
       0.07545217 0.22670132 0.20268328 0.05324944
0002a0 36 b6 8e 3e 33 f3 44 3e 26 7b 97 3d 27 48 a7 3e
       0.2787339 0.19233398 0.073965356 0.32672235
0002b0 d4 6d 0e 3e 00 65 3a 3e 26 99 06 3e 54 9c 8d 3e
       0.13909084 0.18202591 0.13144359 0.2765833
0002c0 07 ab 99 3e 29 e2 fe 3d fc fa a9 3e 28 cf f2 3d
       0.30013296 0.124454804 0.33199298 0.11855918
0002d0 8f b1 ea 3d 41 66 16 3e 28 f3 8a 3e f5 e8 2b 3e
       0.11459648 0.14687444 0.27138638 0.16788085
0002e0 1e 0c 0f 3e 22 08 cf 3d e3 75 6e 3e e1 82 df 3d
       0.13969466 0.10108973 0.23287158 0.10913635
0002f0 7a b9 c0 3e 5c 07 89 3d 4e 61 5a 3e b2 73 87 3d
       0.37641507 0.06690857 0.21326181 0.06613864
000300 f9 05 87 3e 7f 07 30 3e ed 6c bd 3d e5 dc dd 3e
       0.26371744 0.1719036 0.092492916 0.43332592
000310 76 53 35 3e 92 5d cf 3e 94 7f 20 3e 36 9d a4 3e
       0.17707619 0.40501076 0.15673667 0.32151192

layers.2.running_var f4 [200]
000000 da b8 a6 3d bd 1a 32 3d 5d a4 a2 3c 1d dc 9e 3d
       0.081407264 0.04348253 0.019853765 0.07756827
000010 3b 93 44 3d 8d aa a2 3d 1d 97 da 3d c6 a0 db 3d
       0.047991972 0.07942686 0.10673354 0.107240245
000020 13 e9 31 3d 69 d5 5f 3d a1 8d 55 3c e5 36 2f 3d
       0.043435168 0.054646883 0.013034255 0.04277696
000030 71 1c 00 3d 51 39 1a 3d ce eb 14 3e 0a 6e a1 3d
       0.031277124 0.037652317 0.14543077 0.078823164
000040 75 f7 66 3d e5 ab 4d 3d 46 30 b2 3d 02 79 25 3c
       0.056388337 0.05021276 0.08700614 0.010099651
000050 d9 0d 99 3e 1c 0d a0 3d 90 68 84 3d 66 42 6d 3d
       0.29893377 0.078150004 0.06465256 0.05792465
000060 d2 db c8 3b 01 49 e4 3d 2b 06 65 3e 8c 4c 7c 3d
       0.0061297202 0.11146737 0.22365634 0.06159644
000070 e9 8d 15 3e 7a 06 b1 3d 90 35 de 3c 50 04 3f 3d
       0.14604916 0.086438134 0.02712515 0.046634972
000080 8d 27 81 3d 95 b0 12 3d 96 30 f6 3c 19 de 8d 3d
       0.06306372 0.035812933 0.030052464 0.069271274
000090 0a d1 11 3d ed 20 3f 3e db ee a4 3c f6 c2 02 3d
       0.035599746 0.18664904 0.020133426 0.03192421
0000a0 9a c6 fe 3c 28 3c 2f 3d 6d 15 25 3e 01 93 8a 3d
       0.03110056 0.04278198 0.16121455 0.0676632
0000b0 85 39 33 3d d3 5d 29 3d 2a fc b4 3d 67 01 2c 3d
       0.043756027 0.041349243 0.08837159 0.041993525
0000c0 c1 53 91 3b a6 12 ea 3c d7 13 ee 3c 4c 7e 33 3d
       0.004435033 0.028573345 0.029062195 0.043821618
0000d0 84 83 f0 3d ee e1 2f 3e 7c 2f b2 3c 3d f0 b6 3c
       0.117438346 0.17176029 0.021751158 0.022331351
0000e0 99 99 9c 3c f9 fd b8 3e e5 3e 40 3e c0 a2 4f 3d
       0.01911621 0.36131266 0.18773992 0.05069232
0000f0 9d 87 06 3e 9f 64 04 3c b0 77 df 3d 39 ca a8 3c
       0.1313767 0.008080631 0.109115005 0.02060424
000100 60 08 32 3e cf 4f 6c 3d 66 de 93 3d fc 88 64 3d
       0.17386007 0.0576933 0.072201535 0.0557947
000110 bf 00 3e 3d fc 83 1d 3d 4f 11 84 3c 92 6b 80 3d
       0.04638743 0.03845595 0.016121535 0.062705174
000120 5b 85 bd 3d 8f f2 46 3d 24 2e 7d 3d bf 2c 32 3e
       0.09253951 0.048571166 0.06181158 0.17399882
000130 73 91 ed 3d 04 ca 95 3d 40 a1 12 3e 64 af 2a 3d
       0.11600008 0.07313922 0.14319324 0.04167117
000140 ea 3f 92 3d e5 70 2d 3d 7e 45 8d 3c d6 ab d9 3d
       0.07141097 0.042343993 0.01724505 0.10628478
000150 e1 3a d7 3d ce 9e ef 3c 86 37 9c 3d 59 44 51 3d
       0.10509277 0.029250529 0.07627778 0.051090572
000160 cc c1 10 3d 99 55 ba 3d 68 1e a5 3d d2 af 30 3d
       0.03534107 0.09098358 0.0806244 0.043136425
000170 8d 6e 4a 3d 4d e7 fa 3a 2a 3c 79 3e 1e 75 dc 3c
       0.049421836 0.0019142419 0.24339357 0.026911315
000180 30 67 32 3d 01 98 90 3d 21 5e 8a 3d 14 86 c2 3c
       0.04355544 0.070602424 0.06756235 0.023745574
000190 50 78 6b 3d 6c 35 87 3d 11 27 77 3a d3 98 3a 3d
       0.057487786 0.06601986 0.00094281236 0.0455559
0001a0 1a 7b 73 3d 6b f2 f6 3d e1 14 83 3d 19 95 83 3d
       0.05944357 0.12057956 0.06400467 0.064249225
0001b0 89 c3 1c 3e 88 7d a7 3d b5 c1 5a 3d f9 d5 0b 3e
       0.15308966 0.0817824 0.05340739 0.13655843
0001c0 70 ff af 3d 90 ec 1a 3d 03 fb c9 3d 94 b7 bf 3d
       0.08593643 0.03782326 0.0986233 0.093611866
0001d0 96 19 cd 3d 1d 66 33 3d 09 ca d0 3d 72 d7 41 3c
       0.10014646 0.043798555 0.10194785 0.011831151
0001e0 a9 9e f4 3d 84 67 4b 3d 05 26 4c 3d c1 e4 ec 3d
       0.119443245 0.049659267 0.049840946 0.11567069
0001f0 97 21 a6 3d fa e7 31 3d d5 48 85 3c 43 c2 b6 3c
       0.081118755 0.04343412 0.01627008 0.022309428
000200 f5 73 b2 3b 04 ae d0 3c af 82 8c 3d 57 2f 3e 3d
       0.005445952 0.025473602 0.068608634 0.046431866
000210 36 7c b2 3d cd b7 fd 3d 7f 83 b8 3d cf 5f 74 3b
       0.087150976 0.12388573 0.09009456 0.0037288552
000220 b5 e7 29 3d 87 a0 3b 3d 3c 8a a3 3d 83 bb 67 3d
       0.04148074 0.045807388 0.079853505 0.05657531
000230 5e c1 a7 3d 01 7b 99 3d 1a 87 52 3d bd 34 50 3d
       0.08191179 0.07494164 0.051398374 0.050831545
000240 c3 f8 77 3d 69 1e 29 3d 6a 6a cd 3c 54 2c 43 3d
       0.060539972 0.041288767 0.025075156 0.047649696
000250 68 32 d8 3d c3 d6 9c 3d cc ac 15 3e da 4a 9f 3d
       0.10556489 0.0765815 0.14616698 0.07777949
000260 3d 09 47 3d 59 91 80 3d 31 a8 8b 3d 0c b0 6a 3c
       0.048592795 0.06277723 0.06819189 0.014324199
000270 e8 4a 10 3d ee b8 4e 3d 88 e7 6c 3d 51 6f 5c 3d
       0.035227686 0.05046933 0.057837993 0.053817097
000280 9a a1 6b 3e 40 f6 90 3d df 71 af 3d 08 02 20 3e
       0.23010865 0.070782185 0.08566641 0.15625775
000290 27 8f 36 3d 6a cc 06 3e b0 a7 89 3d 0d d2 cf 3c
       0.044570114 0.13163915 0.06721437 0.025368715
0002a0 a7 43 22 3e 94 73 85 3d 52 ad 22 3d 9b 88 4a 3e
       0.1584612 0.065161854 0.039716072 0.19778673
0002b0 43 a7 2a 3d 4b 0e c5 3d cc 76 54 3d bd b8 f8 3d
       0.04166342 0.09621867 0.051871106 0.12144611
0002c0 a1 93 68 3d 97 a6 a7 3d c2 66 3c 3d fd 72 29 3d
       0.056781415 0.08186071 0.045996435 0.041369427
0002d0 18 7f 1d 3d 26 88 44 3c 48 35 da 3d 88 86 97 3d
       0.038451284 0.011995351 0.10654694 0.07398707
0002e0 6e 70 51 3d 7c d6 55 3d 8a ef c3 3d d1 44 7b 3d
       0.051132612 0.0522065 0.09567173 0.061344925
0002f0 b5 d2 7a 3d 25 df 39 3d 89 f0 6b 3d 53 97 b3 3b
       0.061236102 0.045378823 0.05760244 0.0054806857
000300 7d c7 2f 3d 09 f1 78 3d 1b 31 88 3d c7 5d 14 3d
       0.042914856 0.060776744 0.06649991 0.036222246
000310 70 db b3 3d 87 90 ad 3d ec 65 2d 3d 83 21 28 3e
       0.08782089 0.08474832 0.04233353 0.16419034

layers.4.weight f4 [100, 200]
000000 e9 f7 cf 3d b5 22 84 3d 06 f8 35 3d 9f 1b 88 bd
       0.10154707 0.06451932 0.044425987 -0.06645893
000010 29 aa b4 3c 3c 02 a4 3b 99 cf a2 3c c0 53 18 bc
       0.022053795 0.005005149 0.01987438 -0.009297311
000020 f0 1a fa 3d 79 f0 63 bd e2 60 d0 bd d2 80 35 bc
       0.12212169 -0.055649254 -0.10174729 -0.011078076
000030 11 52 8e 3d 98 46 be bd 70 0a 2e bd ad 53 99 3b
       0.06949247 -0.092908084 -0.042490423 0.0046791644
000040 de b2 b5 3d 73 3e f8 bb cd 7a b6 bd 8e 26 26 bc
       0.08872007 -0.007575804 -0.08910141 -0.010141028
000050 96 5b d0 3b ad 94 8e 3d 73 93 69 bb de 1e 8c 3d
       0.006358574 0.069619514 -0.0035640865 0.06841825
000060 cd 61 9a bd c4 21 9e 3c 1a e9 61 3c 55 3c b8 bd
       -0.07538185 0.01930321 0.013788486 -0.089958824
000070 79 10 14 bc 9a 2f 1d bd 9d dc cb bd f3 12 41 3d
       -0.0090371305 -0.038375475 -0.09954188 0.047137212
000080 79 01 bf 3d 0e a6 08 bd 99 1d c0 3c ae 44 ab 3d
       0.09326453 -0.033361487 0.023451613 0.08362709
000090 88 c6 1d bd c5 07 bc 3b b0 ba 4a bd 2c 93 dc 3c
       -0.038519412 0.005738231 -0.049494445 0.026925646
0000a0 0c 5d c2 3d 34 77 fd 3c 72 c8 d3 3c f6 7c f9 3d
       0.094904035 0.03094063 0.025852416 0.121820375
0000b0 bb 84 c5 3c e4 0a d7 3c 76 dd 78 bd 89 28 5e 3d
       0.024111142 0.02625031 -0.060758077 0.054237876
0000c0 da 48 04 3d 34 73 8b bc 60 6f f1 3d fa a5 6c 3c
       0.03229604 -0.017022707 0.11788821 0.014443869
0000d0 4f aa 05 3d 81 aa c2 3d 23 f9 b8 bc 4e 91 9b 3d
       0.032633122 0.09505177 -0.022579735 0.07596074
0000e0 1a 53 69 bc 70 b8 0a 3d c2 14 d6 3c 04 d6 64 bd
       -0.014241004 0.0338673 0.026132945 -0.055868164
0000f0 3d a8 9d bc a5 72 41 3c 15 34 f6 bd d6 fa ac bd
       -0.019245261 0.011807119 -0.120216526 -0.08446281
000100 80 0f 9f bd 65 bd 9d bb 26 9f b6 3d 3f 34 e3 3b
       -0.07766628 -0.0048138374 0.08917074 0.0069337185
000110 86 a0 12 bb 95 10 e5 bd db fb ef 3c c5 6a 94 3c
       -0.0022373511 -0.111848034 0.029294899 0.018117318
000120 6d 0c 7a 39 7b 35 ad 3d 90 58 3f 3d 4f 3d db bb
       0.00023846487 0.08457466 0.04671532 -0.006690658
000130 af 91 0a bd b3 63 d1 bc 63 0f 0d 3d ab 06 c2 3c
       -0.03383034 -0.025560236 0.034438502 0.02368482
000140 3f 1f 84 3c 1e 3e b6 3d 3a 5a ab 3d d5 db da ba
       0.01612818 0.08898567 0.08366819 -0.0016697595
000150 18 de c9 3c c0 c8 83 3d ef f4 f5 bd 6e 8c 1d 3b
       0.024642035 0.064347744 -0.12009608 0.0024040001
000160 8c 3c 38 3d d6 cb 64 3d ad 1a 8d 3d 6b 4b ea 3c
       0.044979617 0.055858456 0.068898536 0.028600415
000170 9f 6f 9d 3d 03 87 be 3d 7a 0b 93 3c 6c 05 c8 3c
       0.07687306 0.09303095 0.017949808 0.024416648
000180 ee f5 48 bd 28 bc 5b 3d 30 62 8b 3c 2f a8 b3 3d
       -0.04906266 0.053646237 0.017014593 0.08772313
000190 9d 58 9f 3d 84 dd 21 3d f3 c5 1b 3d c6 de 2e bd
       0.077805735 0.039517894 0.038030576 -0.042692922
0001a0 dd ef 9a 3d 08 d8 64 bc 57 c3 ec 3b 11 1c 3b bc
       0.075652815 -0.0139675215 0.0072254348 -0.011420266
0001b0 ac f7 bf bc c2 3d ae bb 18 5b b5 3d 1c a0 2a 3c
       -0.023433529 -0.0053174207 0.088552654 0.01041415
0001c0 a9 5f a0 3d c7 a4 98 bc 8f 0d 5c bd 50 ca 90 bd
       0.07830746 -0.01863326 -0.053723868 -0.07069838
0001d0 25 9b a6 bd 2c bc df 3c b0 78 28 bd 99 e8 cb bb
       -0.0813506 0.027311407 -0.04113072 -0.006222796
0001e0 b6 e3 d3 bc eb 98 f6 39 7f 03 b2 bc 6a 9d 72 bc
       -0.025865417 0.0004703471 -0.021730183 -0.014808038
0001f0 a8 52 52 3d 0a 1d c8 bd d6 36 02 bc 65 eb eb bd
       0.05134836 -0.09771164 -0.007947644 -0.11519507
000200 df fe b6 3d 8d 16 33 bc 57 3a 3d bc b5 07 9e bc
       0.089353316 -0.0109306695 -0.011549554 -0.019290784
000210 b9 d0 32 bc dc a5 f7 bb 4c 69 63 3d 65 5b 00 3c
       -0.010914021 -0.007557614 0.05552034 0.00783429
000220 b2 02 03 3d f8 fd c5 3d 82 d6 94 bd b2 a5 c1 3c
       0.031984992 0.09667581 -0.072674766 0.02363858
000230 f7 dc 3e bd 28 c6 b0 3d c2 75 2f bd 7b a9 4f 3d
       -0.046597447 0.08631545 -0.042836912 0.05069874
000240 ef 18 75 3d c4 61 b5 3d 26 91 ff bb 6e 0c d2 3b
       0.05983823 0.08856538 -0.0077992855 0.006410173
000250 0e c7 20 ba e9 bc f4 3c 04 8d 86 3d 1a 2c d7 3c
       -0.0006133177 0.029875236 0.06569865 0.026266146
000260 e0 96 c4 3c a2 f1 22 3a a2 9e 0b bd 51 b9 3c bd
       0.023997724 0.00062158157 -0.03408683 -0.04607517
000270 f1 3a 2a bd f7 2b 53 bc e5 ed c5 3a 59 8e 8f 3d
       -0.041560117 -0.0128889 0.0015100805 0.070095725
000280 df 67 8e 3c 0f 75 a5 3a 54 cf a5 3d 1a b0 e0 3c
       0.017383514 0.0012623387 0.08096185 0.027427722
000290 1f 66 32 3d cc 1e a6 3d 36 f5 9b 3d e8 f6 3f 3c
       0.04355442 0.08111343 0.0761513 0.011716582
0002a0 ad ab ef 3c 48 12 23 bd 81 34 64 3d c0 21 af 3c
       0.029256666 -0.039812356 0.055714134 0.021378398
0002b0 90 89 0b bd 98 71 8a 3c 38 0a ed 3d 01 f7 b4 bd
       -0.034066737 0.016899869 0.11574215 -0.08836175
0002c0 c6 ab c5 3d 5f eb a7 bc 53 4a 17 be b7 60 d2 3d
       0.09651904 -0.020497976 -0.14774446 0.10272353
0002d0 20 26 f3 3c d2 46 25 bd f2 8f d0 3d b2 15 ee 3c
       0.029681265 -0.040350743 0.101837054 0.02906308
0002e0 be 54 f2 3b f0 2e 9b 3d 5c 9c c0 3b 2c 88 8d ba
       0.007395356 0.07577312 0.0058780145 -0.0010798029
0002f0 92 6a b3 bd 0e 86 88 3d 75 20 53 3c 08 dd 8c bb
       -0.08760561 0.06666194 0.012886156 -0.00429881
000300 43 e8 30 3c 98 be 84 3d 78 fc 48 3d 76 35 15 bd
       0.010797563 0.064816654 0.049068898 -0.036427937
000310 b7 89 2e 3d e5 0e ff 3b ba e9 b5 3d 2e 98 ea 3c
       0.042611804 0.007783758 0.088824704 0.028637018
000320 a8 cf 37 3d 6e 62 0f 3d 1f e3 88 bd d7 22 f4 3c
       0.04487577 0.03500598 -0.06683945 0.02980177
000330 18 c3 8a bd 5e ca 84 3d 24 e6 20 3d fc 17 20 bd
       -0.067754924 0.06483911 0.03928198 -0.039085373
000340 ef 22 53 3d eb b2 97 bc 05 fa 3c 3d a2 fc 1b 3b
       0.051546987 -0.018517932 0.046136875 0.0023801704
000350 32 e5 82 bd ea f7 2f bd d8 20 c9 bb 89 f3 89 bc
       -0.06391372 -0.04296104 -0.0061379485 -0.01683976
000360 34 64 2c 3d f3 32 c5 bc da a3 57 bc 8c 1d 65 3d
       0.04208775 -0.024072146 -0.013161624 0.05593638
000370 51 e4 07 bd f5 95 f5 3c 90 e3 e7 3c b3 89 81 3d
       -0.033176724 0.029978732 0.028306752 0.06325092
000380 e2 6a e1 3c 2e 2b ce 3b a7 a9 d7 bc f1 c6 32 3c
       0.027516786 0.0062917685 -0.026326014 0.010911689
000390 7a 7f d9 3c bf d1 a9 3c e8 4f 41 3c d0 0d ee 3d
       0.026550043 0.020729898 0.011798836 0.11623728
0003a0 c5 95 1f 3d c2 ee e3 3b e2 4a 97 bd ca 96 37 bc
       0.03896119 0.0069559524 -0.0738733 -0.0112053845
0003b0 86 b2 1d bd c6 98 8f bd a5 cf 08 3d db 32 79 3c
       -0.03850033 -0.07011561 0.03340115 0.015209879
0003c0 4a 4e 8f 3d f8 f3 cf 3c 23 85 ab 3d 51 c7 73 3d
       0.06997354 0.025384888 0.08375003 0.059516255
0003d0 c1 0c 70 3d de 1d 4f 3d 3b 59 f6 bc fb 07 d4 3c
       0.058605913 0.050565593 -0.030071845 0.025882712
0003e0 cb d5 16 bd 02 07 59 3c 3a 37 e1 bd 5a 26 dc bc
       -0.036824983 0.0132463 -0.10996862 -0.026873756
0003f0 ac a3 57 bb 2e fa ef 3c 5e 5e db 3d 69 72 c4 3d
       -0.0032903953 0.0292941 0.107113585 0.095921345
